backend/deepfake_model.pth (torch, 507360 bytes, 7 tensors)

conv1.weight f4 [32, 3, 3, 3]
-0.0007661128 0.1368776 -0.0063915085 -0.015666382 -0.07342523 -0.031441092 0.13322203 0.13918783
-0.06497135 0.05296247 -0.0017400688 -0.026549248 -0.10837541 -0.010245756 -0.18765283 -0.14703695
0.166521 0.043725297 0.093937576 0.11558596 -0.044757325 0.11042728 0.010436519 -0.06407292
0.0533914 0.039883547 0.15125574 0.13942249 0.047638956 0.10024515 -0.14544044 -0.18404533
0.0040570996 0.014199456 0.089236535 -0.16570802 -0.116750866 -0.0072726225 -0.1701866 -0.09154421
0.18581028 0.049101066 0.09961868 -0.20427331 0.16156809 0.060779165 0.046926193 0.1106571
-0.15640977 0.03530181 0.1799863 -0.18454705 -0.18756086 -0.12669337 -0.100412734 0.07733103
-0.18780087 -0.12572539 0.14624974 0.08431519 -0.0738413 0.080674775 -0.14922692 0.024983067
-0.19519141 0.004182672 -0.15966123 -0.1775738 0.1594713 0.07477702 0.050094675 -0.14163768
0.09011761 0.12348075 0.13475735 -0.007064938 0.12399003 0.123995796 0.043931857 0.06455632
0.035145376 -0.04607121 0.09675916 0.1464875 -0.18568093 0.11195389 -0.033885594 0.033711478
-0.20541029 0.07732056 0.023130544 0.008045794 0.060569514 -0.10267747 0.13519323 -0.16903381
0.08033704 0.14737487 -0.099144615 0.12238003 -0.036850058 0.20503917 -0.11905876 -0.14030208
-0.10057889 0.17913078 -0.07123243 -0.033553753 -0.14697704 -0.041663285 -0.19601715 -0.10628551
0.018576633 -0.19440624 -0.12467913 -0.15611598 -0.06812251 0.111550346 -0.109594904 0.08855747
-0.2032206 -0.10517186 -0.18739337 -0.12052046 0.1282172 -0.19420719 0.14631248 -0.048778225
0.023272052 -0.10791432 -0.014844508 -0.054707214 -0.12853932 -0.14804299 -0.045050267 -0.19841576
0.060125057 -0.07504707 0.123410664 -0.028325377 -0.06556149 -0.03321166 -0.017927809 0.18507053
-0.15806313 0.14749905 0.037092224 -0.11192921 -0.071199246 0.16961831 -0.11454753 0.053302683
-0.16389693 -0.12867463 0.03685727 0.18775205 -0.018742092 -0.025578734 -0.13400824 -0.06041363
0.106310144 0.13548982 -0.040368363 -0.11417091 0.0656512 0.082265906 0.16147664 0.08055609
-0.01090067 -0.10840073 -0.18245792 0.16401783 0.13498406 -0.06808751 -0.02312041 -0.015909728
-0.07306436 -0.16398223 -0.12503703 -0.140608 0.17061688 0.08291275 0.15384991 -0.09254428
-0.16094507 -0.12833786 -0.19329694 -0.07446144 0.16695504 -0.017087959 -0.08695567 -0.04240396
-0.012657768 0.14594316 0.1725654 0.062494356 -0.029194126 0.026895987 0.06600504 0.053076703
0.15681338 -0.21022505 -0.14965771 0.0028749155 -0.032251872 0.17983887 -0.08581513 -0.15109669
-0.08270505 0.11920618 -0.13895719 -0.04060465 0.06005281 0.08877918 0.1498263 0.15219572
-0.020392522 -0.05692683 0.028014535 -0.111395 0.03358945 -0.00062141544 -0.15055746 0.20383881
-0.05299621 -0.08457097 -0.1660497 -0.12273192 -0.00015114657 0.12114884 0.15733168 0.19475782
0.20720218 -0.14918521 -0.056918643 -0.18184131 -0.053044822 -0.1880087 0.15651031 0.12588803
0.13076027 0.042979494 -0.047152694 0.04595852 0.060362797 -0.072707266 -0.025599238 -0.07721581
-0.09729501 0.020552283 0.15400715 0.12231775 0.106740266 -0.03215204 0.18868437 -0.11029861
00000000: f6d4 48ba a429 0c3e dc6f d1bb c956 80bc
00000010: f85f 96bd 60c8 00bd 5b6b 083e 4187 0e3e
00000020: b30f 85bd 2def 583d 0513 e4ba cf7d d9bc
00000030: edf3 ddbd d1dd 27bc 1028 40be db90 16be
00000040: 7b84 2a3e 4c19 333d 5862 c03d 55b8 ec3d
00000050: 7553 37bd b327 e23d effd 2a3c aa38 83bd
00000060: f1b0 5a3d ee5c 233d c9e2 1a3e c5c4 0e3e
00000070: 1121 433d 544d cd3d 57ee 14be 6176 3cbe
00000080: 6bf1 843b d6a4 683c a5c1 b63d 5daf 29be
00000090: 141b efbd 2e4f eebb 6545 2ebe 887b bbbd
000000a0: 0d45 3e3e 331e 493d e104 cc3d 062d 51be
000000b0: 1b72 253e 93f3 783d ae35 403d 31a0 e23d
000000c0: e229 20be a198 103d 544e 383e e7f9 3cbe
000000d0: f40f 40be e8bb 01be 31a5 cdbd bb5f 9e3d
000000e0: df4e 40be 28be 00be 7ec2 153e 71ad ac3d
000000f0: 1c3a 97bd d138 a53d f1ce 18be 4aa9 cc3c
00000100: 42e0 47be cc0e 893b 3c7e 23be e8d5 35be
00000110: 724c 233e b224 993d 1330 4d3d 7809 11be
00000120: 958f b83d 7ae3 fc3d d5fd 093e ff80 e7bb
00000130: 7cee fd3d 82f1 fd3d e4f1 333d 1b36 843d
00000140: 99f4 0f3d 2ab5 3cbd ab29 c63d d200 163e
00000150: 2423 3ebe 1548 e53d 9fcb 0abd 0c15 0a3d
00000160: 1357 52be 3e5a 9e3d 447c bd3c 82d2 033c
00000170: bd17 783d 9148 d2bd 1870 0a3e 3317 2dbe
00000180: bf87 a43d 70e9 163e 550c cbbd 62a2 fa3d
00000190: 16f0 16bd caf5 513e 14d5 f3bd 59ab 0fbe
000001a0: 4efc cdbd 0f6e 373e 4fe2 91bd a96f 09bd
000001b0: 2681 16be 1fa7 2abd b8b8 48be 38ac d9bd
000001c0: 062e 983c 6e12 47be c657 ffbd dedc 1fbe
000001d0: d183 8bbd 8274 e43d 4b73 e0bd 9e5d b53d
000001e0: 1019 50be 5864 d7bd 0ce4 3fbe 6ed3 f6bd
000001f0: 5f4b 033e 40de 46be f0d2 153e adcb 47bd
00000200: 08a5 be3c 2f02 ddbd 6136 73bc ac14 60bd
00000210: d09f 03be 9598 17be a186 38bd 802d 4bbe
00000220: b145 763d 47b2 99bd bbbe fc3d 9f0a e8bc
00000230: 1a45 86bd f308 08bd 57dd 92bc 2183 3d3e
00000240: 4ddb 21be fe09 173e 04ee 173d 243b e5bd
00000250: e9d0 91bd 6cb0 2d3e e597 eabd ea53 5a3d
00000260: 99d4 27be 48c3 03be a6f7 163d 1342 403e
00000270: 0489 99bc 7e8a d1bc 7539 09be 4874 77bd
00000280: 22b9 d93d d8bd 0a3e 4c59 25bd 70d2 e9bd
00000290: 2374 863d 077b a83d 225a 253e 97fa a43d
000002a0: b998 32bc 3401 debd 40d6 3abe 4af4 273e
000002b0: 4339 0a3e 7771 8bbd 0467 bdbc 1e55 82bc
000002c0: c4a2 95bd f5ea 27be b509 00be 8bfb 0fbe
000002d0: 31b6 2e3e 29ce a93d d58a 1d3e db87 bdbd
000002e0: c9ce 24be 006b 03be a2ef 45be 3d7f 98bd
000002f0: 43f6 2a3e 0cfc 8bbc d015 b2bd c6af 2dbd
00000300: 8762 4fbc 2072 153e fcb4 303e 15fa 7f3d
00000310: 8528 efbc f954 dc3c a72d 873d f566 593d
00000320: b093 203e 3c45 57be df3f 19be 1469 3c3b
00000330: 8a1a 04bd ae27 383e d8bf afbd 17b9 1abe
00000340: 4461 a9bd 5f22 f43d cb4a 0ebe 1051 26bd
00000350: eff9 753d dcd1 b53d 116c 193e 32d9 1b3e
00000360: 380e a7bc 1c2c 69bd bd7e e53c 1023 e4bd
00000370: 1795 093d 7ce6 22ba bc2b 1abe 1fbb 503e
00000380: 8e12 59bd 8b33 adbd ef08 2abe df5a fbbd
00000390: 197d 1eb9 e21c f83d 8e1b 213e 986e 473e
000003a0: cf2c 543e 02c4 18be 8623 69bd 9c34 3abe
000003b0: 8745 59bd 5a85 40be 3d44 203e cbe8 003e
000003c0: 05e6 053e 440b 303d 2f23 41bd 003f 3c3d
000003d0: fb3e 773d 8ce7 94bd 7eb5 d1bc 5323 9ebd
000003e0: 9b42 c7bd 435d a83c 0db4 1d3e ba81 fa3d
000003f0: a49a da3d dcb1 03bd 7a36 413e 3de4 e1bd

conv1.bias f4 [32]
0.17924187 0.07353003 0.018653726 0.09388665 0.1062171 0.062182616 0.09360119 -0.06704023
0.0476362 0.09891845 -0.032229166 0.037132535 0.08286521 0.009640689 0.04735175 0.060152177
-0.10124375 0.11311473 -0.047199804 -0.005957147 -0.17883638 0.05839111 -0.05642956 -0.09007376
0.035919715 0.10031341 -0.06166818 0.07815624 -0.0051800963 -0.061279487 -0.15714867 0.038862728
00000000: 2e8b 373e ea96 963d b3cf 983c a547 c03d
00000010: 5a88 d93d 33b3 7e3d fbb1 bf3d 634c 89bd
00000020: 2d1e 433d c295 ca3d bb02 04bd 4918 183d
00000030: 3cb5 a93d fbf3 1d3c e9f3 413d 2162 763d
00000040: e258 cfbd b2a8 e73d 9554 41bd 2c34 c3bb
00000050: e220 37be 842b 6f3d af22 67bd 9778 b8bd
00000060: 8d20 133d 1e71 cd3d c697 7cbd 6110 a03d
00000070: ccbd a9bb 3300 7bbd 95eb 20be 862e 1f3d

conv2.weight f4 [64, 32, 3, 3]
-0.04377207 0.0033225908 0.030467235 0.0006497629 -0.026114827 -0.04373996 0.0009949006 0.0035923552
0.036598373 -0.011370238 0.061850674 -0.03847589 0.07695877 0.058165383 0.034666907 0.05244687
-0.016598223 -0.040203225 -0.047980245 0.007607211 -0.037836723 0.01652728 -0.026716014 -0.018937739
-0.033151127 -0.053291366 -0.05924262 0.07292199 0.024327334 -0.028740788 0.0016339393 0.030730827
-0.016289575 0.021863472 -0.035109274 0.0264153 0.041046664 -0.019554572 -0.06543079 -0.053333137
-0.034186184 0.05621694 -0.02275113 -0.05346963 0.034877844 -0.03103118 0.008827045 -0.0010513546
0.07455873 0.0068788826 0.05937341 0.044577733 0.0031384784 -0.023171667 -0.02873695 0.06341253
-0.046504315 -0.006346504 0.058223106 0.034103237 0.036306 -0.013505461 -0.04553009 -0.009940923
0.03578559 -0.03201943 0.029839551 0.016186645 0.05315488 0.05535617 0.025138484 -0.02442809
0.06816791 0.08137962 0.046867948 0.07965597 0.02913429 0.058467675 0.09700929 0.047628567
0.023922803 0.05777379 -0.014942668 -0.028817175 0.043046247 0.06634108 0.022035353 -0.020540863
-0.040749017 -0.019704038 0.043242514 -0.053148173 0.06712421 -0.030911287 0.064374596 0.042825636
0.06633838 0.039333697 0.073862955 0.020277126 -0.042359363 -0.057050385 -0.0023855313 0.029130984
0.057121284 0.044286937 -0.039174862 0.032467082 0.04003437 -0.028189145 -0.017186012 0.026967827
-0.0339777 -0.025266197 -0.012162716 0.08820099 0.08344313 0.009908084 0.118327536 0.076633595
0.018808007 0.059572116 0.034266476 -0.016318351 0.046998464 0.07241391 -0.0040849023 -0.03985934
-0.02963045 0.021319961 0.04465017 0.0015009941 -0.028367097 0.01102788 -0.05619261 -0.028651958
-0.0104358215 -0.0014806838 0.048522405 0.061060984 0.06765581 -0.044392753 0.0053214566 0.0060871867
0.004603395 0.011663077 0.035519034 -0.06615157 0.027890095 0.044930268 -0.01243424 0.042928644
-0.03696973 -0.042914994 0.014178912 0.0013651083 0.0047729714 -0.027766148 -0.0040158653 0.0023259167
-0.023685396 -0.050931625 0.05515573 0.05981795 0.024538603 -0.013590262 0.056657538 -0.024151733
0.04147169 0.00802423 -0.055926025 0.040129267 0.012993568 -0.011504146 0.016524302 0.057196394
-0.003897608 -0.021821223 -0.03510149 -0.03483176 -0.044753853 -0.019555032 0.010018072 -0.046619747
0.002110098 -0.06783818 -0.011059088 -0.0477245 0.03745336 -0.054430168 0.013426244 0.045271393
-0.03395441 0.010621103 -0.007963116 0.07377819 0.07952918 0.01207677 -0.052629266 0.011105346
0.00087980856 0.0078072785 -0.0037584503 0.03749238 -0.0002944747 0.048492063 0.065719835 0.019478103
0.00019629773 -0.0518403 -0.05077176 0.022022376 0.031307742 0.055222232 0.0080450345 -0.007320672
0.06869539 0.05168162 -0.037275773 0.033683904 0.019233394 -0.015547532 0.031695377 0.03700191
-0.04442576 0.02283249 0.041642517 0.040349808 0.0018505228 0.07303861 0.032849867 0.011236296
-0.000587506 -0.026490979 -0.043607388 -0.046713125 -0.063890435 -0.0036017427 0.028690346 -0.049982492
0.045013703 0.005979457 -0.026713079 0.052285653 0.030339602 0.019669276 -0.05446598 0.051574126
0.006604979 0.003753845 -0.024444431 0.021710146 0.020100014 0.038343668 -0.024352366 0.045038074
00000000: 584a 33bd d3bf 593b 6c96 f93c da54 2a3a
00000010: c3ee d5bc ac28 33bd 5367 823a b86d 6b3b
00000020: 2de8 153d 3c4a 3abc 2257 7d3d e598 1dbd
00000030: 8f9c 9d3d d33e 6e3d e3fe 0d3d 87d2 563d
00000040: fff8 87bc 23ac 24bd ef86 44bd e945 f93b
00000050: aefa 1abd 3864 873c 8bdb dabc 5123 9bbc
00000060: 7ac9 07bd 0c48 5abd 64a8 72bd 2058 953d
00000070: 1e4a c73c cd71 ebbc e829 d63a 37bf fb3c
00000080: b771 85bc 061b b33c bece 0fbd e664 d83c
00000090: 8c20 283d e930 a0bc 9400 86bd d973 5abd
000000a0: d006 0cbd bc43 663d 9460 babc f902 5bbd
000000b0: 12dc 0e3d 1a35 febc 4f9f 103c 9bcd 89ba
000000c0: 3fb2 983d 4068 e13b 8831 733d 2497 363d
000000d0: eeae 4d3b 82d2 bdbc c169 ebbc 6ede 813d
000000e0: 4f7b 3ebd 56f6 cfbb 5a7b 6e3d d6af 0b3d
000000f0: 9ab5 143d 0246 5dbc c27d 3abd 41df 22bc
00000100: e993 123d ce26 03bd 1372 f43c db99 843c
00000110: eeb8 593d 27bd 623d 39ef cd3c 6b1d c8bc
00000120: 9e9b 8b3d 5caa a63d 9bf8 3f3d ab22 a33d
00000130: 09ab ee3c cd7b 6f3d ceac c63d 2c16 433d
00000140: c1f9 c33c 36a4 6c3d 18d2 74bc ff11 ecbc
00000150: 4351 303d d5dd 873d 7c83 b43c 5045 a8bc
00000160: 71e8 26bd 5d6a a1bc 101f 313d e6b1 59bd
00000170: 6b78 893d ab39 fdbc d4d6 833d ef69 2f3d
00000180: 6bdc 873d 5f1c 213d 7645 973d 371c a63c
00000190: 0381 2dbd aaad 69bd 9356 1cbb 1aa4 ee3c
000001a0: 02f8 693d 3866 353d d275 20bd 34fc 043d
000001b0: 14fb 233d ecec e6bc aec9 8cbc a2eb dc3c
000001c0: 332c 0bbd 0efb cebc 2146 47bc b8a2 b43d
000001d0: 3be4 aa3d 8455 223c b555 f23d 13f2 9c3d
000001e0: 4013 9a3c e401 743d 015b 0c3d 10ae 85bc
000001f0: 7681 403d be4d 943d a5da 85bb 8c43 23bd
00000200: 8fbb f2bc 33a7 ae3c 19e3 363d 01bd c43a
00000210: 1d62 e8bc 48ae 343c 392a 66bd 83b7 eabc
00000220: 02fb 2abc 8113 c2ba 6ebf 463d 151b 7a3d
00000230: 218f 8a3d 2dd5 35bd 9d5f ae3b 0677 c73b
00000240: 13d8 963b 7e16 3f3c 687c 113d 797a 87bd
00000250: c579 e43c cd08 383d fcb8 4bbc f2d5 2f3d
00000260: 926d 17bd a2c7 2fbd ab4e 683c 6fed b23a
00000270: 9666 9c3b d575 e3bc 8597 83bb 686e 183b
00000280: e007 c2bc ae9d 50bd faea 613d ab03 753d
00000290: 2e05 c93c b1a9 5ebc bc11 683d dbd9 c5bc
000002a0: 38de 293d 0f78 033c b012 65bd 965e 243d
000002b0: f9e2 543c e37b 3cbc f95d 873c c446 6a3d
000002c0: 036f 7fbb 6cc2 b2bc 94c6 0fbd bfab 0ebd
000002d0: d14f 37bd e031 a0bc d722 243c 59f4 3ebd
000002e0: 9249 0a3b beee 8abd 2d31 35bc c47a 43bd
000002f0: b268 193d 2bf2 5ebd c0f9 5b3c 7f6e 393d
00000300: c813 0bbd 2304 2e3c bb77 02bc 0519 973d
00000310: 32e0 a23d a5dd 453c c991 57bd 32f3 353c
00000320: f4a2 663a 33d4 ff3b 5550 76bb 9c91 193d
00000330: ba63 9ab9 9d9f 463d 1f98 863d 8b90 9f3c
00000340: 45d5 4d39 7f56 54bd 0df6 4fbd 4568 b43c
00000350: 8c3c 003d b530 623d 52cf 033c 3fe2 efbb
00000360: 2bb0 8c3d 1bb0 533d 7bae 18bd 22f8 093d
00000370: 5a8f 9d3c 13bb 7ebc 03d3 013d 518f 173d
00000380: c9f7 35bd 340b bb3c 5891 2a3d d745 253d
00000390: 3e8d f23a 4495 953d 958d 063d 7118 383c
000003a0: dc02 1aba 9c03 d9bc a99d 32bd 4356 3fbd
000003b0: fdd8 82bd 370b 6cbb 0408 eb3c 71ba 4cbd
000003c0: 4a60 383d 52ef c33b 63d5 dabc 7b29 563d
000003d0: c28a f83c 7621 a13c b817 5fbd 643f 533d
000003e0: 946e d83b 1203 763b b03f c8bc 7ad9 b13c
000003f0: c9a8 a43c 400e 1d3d 9d7e c7bc d879 383d

conv2.bias f4 [64]
-0.055078276 -0.058599506 -0.00063764484 0.042100795 -0.058160685 -0.02454417 0.036506295 0.0056604804
0.053500134 0.009733677 -0.05669279 0.003184647 0.055859726 0.04103864 -0.010555443 0.025011938
-0.019483518 -0.0021141737 0.034800213 0.051832065 0.014561896 -0.018685365 -0.023529023 -0.00031900295
0.037087325 -0.009717463 -0.03791044 0.030840319 -0.026012724 0.028166624 -0.041551277 -0.05127696
-0.026417969 -0.01070905 0.0030427868 -0.026766587 0.04355319 -0.0005976016 0.022504548 0.010594235
0.0075578224 -0.03469224 -0.021476107 -0.04228915 0.022941388 0.037765637 -0.021034714 -0.020426339
0.036809906 -0.020336239 0.03180102 -0.051573668 0.033342663 -0.0016843161 0.025554432 -0.026195241
0.036816113 0.037649967 -0.02721907 -0.024768587 0.008597775 -0.05355464 -0.026375309 0.0074043414
00000000: c299 61bd 0906 70bd 9f27 27ba e271 2c3d
00000010: e639 6ebd db10 c9bc a087 153d 8d7b b93b
00000020: f522 5b3d 007a 1f3c b336 68bd 83b5 503b
00000030: 2bcd 643d 2218 283d bdf0 2cbc d6e5 cc3c
00000040: e69b 9fbc f38d 0abb ab8a 0e3d dc4d 543d
00000050: 0595 6e3c 0d12 99bc f0bf c0bc da3f a7b9
00000060: e1e8 173d fe35 1fbc fa47 1bbd d6a4 fc3c
00000070: a318 d5bc b1bd e63c ac31 2abd ca07 52bd
00000080: 7f6a d8bc 0375 2fbc 7e69 473b 9a45 dbbc
00000090: d464 323d 5da8 1cba 755b b83c 7193 2d3c
000000a0: 9ca7 f73b 7319 0ebd a9ee afbc 6337 2dbd
000000b0: 94ef bb3c 24b0 1a3d fe50 acbc 2355 a7bc
000000c0: fcc5 163d 2f98 a6bc c941 023d e93e 53bd
000000d0: 5192 083d 45c4 dcba 8757 d13c 6797 d6bc
000000e0: 7ecc 163d da36 1a3d 87fa debc 7ee7 cabc
000000f0: afdd 0c3c 1c5c 5bbd 0811 d8bc 1ea0 f23b

conv3.weight f4 [128, 64, 3, 3]
-0.004013767 0.0060536005 0.016827783 0.0022019213 0.036448665 0.0072758663 -0.027493378 -0.026930623
0.009185125 0.045279805 0.049465194 -0.04176567 -0.005710905 0.038087413 0.009469622 -0.055615004
0.03302896 -0.0058058095 0.022635931 -0.00742701 0.027291933 -0.005400003 0.02826483 0.040787183
0.010208466 -0.024528822 -0.014769138 0.04579989 0.027529871 -0.0022287155 -0.031919327 0.023786873
-0.029265681 -0.03403106 -0.03432512 0.04656517 -0.0033709703 -0.030648062 0.037945453 0.028243706
0.00080167333 -0.008525349 -0.065925725 0.01282241 0.008648081 0.024778394 -0.0027965368 -0.010945255
-0.023707952 -0.023193447 0.031027086 -0.0661182 -0.031034553 0.016518371 0.017151449 0.018508825
-0.047985025 0.055623412 0.057840597 -0.015917253 0.024163438 0.020115819 0.033727102 0.0041310694
0.048198186 0.045376565 -0.032773152 -0.022490703 -0.011219401 -0.06835421 -0.0124478 0.024380965
-0.009851619 -0.020396432 0.004322121 0.04204208 0.015636962 0.015830694 -0.047473118 0.0067676026
0.022335635 -0.031160848 0.025881663 0.009463313 -0.007971329 0.0074576256 0.0386572 -0.050293174
-0.018649748 -0.022054195 -0.00045178496 -0.012714496 0.0021873466 -0.04546648 0.005873306 0.01038848
-0.010927423 -0.05210821 0.031603962 -0.004709719 -0.014187756 0.012308235 0.012264798 0.063087314
-0.0105799865 -0.04154875 -0.028297743 -0.018492421 -0.010649693 -0.027423393 -0.0027320287 -0.0111423405
-0.016412914 0.019885223 0.022234134 0.025983991 0.043873698 -0.027103672 -0.019056905 0.020889703
-0.02499494 -0.018279081 0.0039752945 -0.048481982 -0.00086820335 0.014244607 0.028967427 -0.023583291
0.012793137 -0.016153144 0.010171528 0.010312509 -0.01836187 0.006578057 0.020497229 -0.030925073
-0.004832928 0.007943239 -0.022877095 -0.042708807 -0.008579879 -0.030933833 -0.016440893 0.004950895
0.051542956 0.004643956 0.0062592938 -0.015923422 -0.016607316 -0.02441551 -0.024805175 0.023405705
-0.018133556 0.029990766 -0.029715087 0.02876471 -0.025484316 -0.022553647 -0.039350007 -0.011030788
-0.010446682 -0.03073797 -0.005340675 0.007851007 -0.022248989 -0.0178994 0.013095961 0.0005794961
0.008153952 -0.041772343 -0.014909427 -0.012981522 0.011083312 0.035150003 0.013294722 0.02628988
-0.0110841775 -0.0069863163 -0.015354349 -0.022233482 -0.017838016 -0.01054347 -0.00093862944 0.0062595005
-0.012075852 0.040074777 -0.0267592 0.036460556 -0.0062931455 0.014622537 0.007928961 -0.007315129
-0.044671725 0.037517507 -0.018425101 -0.012590881 0.05727252 0.02151267 0.0018677597 -0.025240453
0.023158675 0.0014667263 0.020043025 0.04872761 -0.04444421 -0.009572228 -0.023321211 0.042590193
-0.03581072 -0.015226421 -0.011848934 -0.044538386 -0.02920488 -0.03908774 -0.0029097633 -0.02525184
0.02370877 0.042481337 4.8641567e-05 -0.047527596 -0.037977684 -0.019208414 -0.018040463 0.006083164
0.012026337 0.025419917 0.0028192163 0.031225873 0.02497726 -0.024385074 0.016874881 0.023694796
-0.0032119702 0.023393016 0.022022182 0.008783405 0.03877387 -0.033207532 -0.032165803 0.003752264
-0.04007612 -0.02582457 -0.010431793 0.0048730536 -0.030349508 -0.0034390173 -0.04144415 -0.0012227055
-0.00012655213 -0.016343608 0.023782125 0.029536875 -0.015054364 0.03839461 -0.021266235 0.03840779
00000000: eb85 83bb 485d c63b 6bda 893c 1c4e 103b
00000010: 324b 153d 646a ee3b cb39 e1bc 9c9d dcbc
00000020: 357d 163c 5177 393d 049c 4a3d 7b12 2bbd
00000030: 8b22 bbbb 8c01 1c3d 7926 1b3c 8fcc 63bd
00000040: 6049 073d a93e bebb fd6e b93c 475e f3bb
00000050: 5593 df3c 82f2 b0bb a58b e73c 7610 273d
00000060: 6941 273c abf0 c8bc 41fa 71bc aa98 3b3d
00000070: 5386 e13c a40f 12bb d7bd 02bd b0dc c23c
00000080: 95be efbc 2764 0bbd 7f98 0cbd 1fbb 3e3d
00000090: 7feb 5cbb a511 fbbc b16c 1b3d 585f e73c
000000a0: 6327 523a e8ad 0bbc 1104 87bd 1615 523c
000000b0: aeb0 0d3c 0ffc ca3c 1a46 37bb ba53 33bc
000000c0: 2e37 c2bc 2f00 bebc 842c fe3c fb68 87bd
000000d0: 2d3c febc 8951 873c 3281 8c3c d29f 973c
000000e0: f28b 44bd 60d5 633d 43ea 6c3d e664 82bc
000000f0: 67f2 c53c eec9 a43c 6e25 0a3d ec5d 873b
00000100: 766b 453d c7dc 393d 243d 06bd 6c3e b8bc
00000110: 94d1 37bc 4bfd 8bbd dbf1 4bbc 97ba c73c
00000120: af68 21bc 6b16 a7bc 94a0 8d3b 5134 2c3d
00000130: 1619 803c 5faf 813c 2c73 42bd c4c2 dd3b
00000140: 39f9 b63c 0945 ffbc c805 d43c 030c 1b3c
00000150: 2d9a 02bc 195f f43b 0357 1e3d 3700 4ebd
00000160: 5bc7 98bc 00ab b4bc 8ddd ecb9 7650 50bc
00000170: 9659 0f3b 0f3b 3abd dd74 c03b 7134 2a3c
00000180: ef08 33bc 6b6f 55bd 2873 013d fd53 9abb
00000190: c373 68bc 7ba8 493c 4bf2 483c ec33 813d
000001a0: ae57 2dbc 062f 2abd abd0 e7bc 6b7d 97bc
000001b0: 0d7c 2ebc 06a7 e0bc d60b 33bb 5d8e 36bc
000001c0: 6074 86bc 56e6 a23c 5c24 b63c 61dc d43c
000001d0: e8b4 333d 8508 debc 3a1d 9cbc e220 ab3c
000001e0: 30c2 ccbc 03be 95bc 3043 823b 0b95 46bd
000001f0: 2498 63ba 3662 693c 194d ed3c bf31 c1bc
00000200: 4e9a 513c 9953 84bc 7ba6 263c ccf5 283c
00000210: a26b 96bc be8c d73b cee9 a73c 9456 fdbc
00000220: 8a5d 9ebb 5c24 023c bf68 bbbc 6eef 2ebd
00000230: 9f92 0cbc f368 fdbc 0daf 86bc 1e3b a23b
00000240: b51e 533d 542c 983b c31a cd3b d671 82bc
00000250: 110c 88bc 0903 c8bc 3934 cbbc 52bd bf3c
00000260: d38c 94bc 32af f53c 0e6d f3bc f8a3 eb3c
00000270: 7cc4 d0bc 6dc2 b8bc 792d 21bd 7aba 34bc
00000280: 8f28 2bbc 32ce fbbc d400 afbb 83a1 003c
00000290: 8343 b6bc c3a1 92bc 7190 563c 53e9 173a
000002a0: 2798 053c 7a19 2bbd ab46 74bc 73b0 54bc
000002b0: c896 353c 73f9 0f3d 1bd2 593c e05d d73c
000002c0: 699a 35bc 78ed e4bb cf90 7bbc fe22 b6bc
000002d0: 0821 92bc 85be 2cbc 5b0e 76ba 7f1c cd3b
000002e0: cbd9 45bc 7325 243d 1c36 dbbc aa57 153d
000002f0: bb36 cebb 5e93 6f3c 79e8 013c c0b3 efbb
00000300: b3f9 36bd f5ab 193d 3df0 96bc fc49 4ebc
00000310: 9796 6a3d 573b b03c 9ecf f43a 11c5 cebc
00000320: 43b7 bd3c 2b3f c03a 4531 a43c 9a96 473d
00000330: 220b 36bd d6d4 1cbc 200c bfbc 0e73 2e3d
00000340: 43ae 12bd 3d78 79bc 0822 42bc e26d 36bd
00000350: 133f efbc 771a 20bd bab1 3ebb f2dc cebc
00000360: e538 c23c e900 2e3d 7c04 4c38 4cac 42bd
00000370: 7d8e 1bbd f75a 9dbc 98c9 93bc 4755 c73b
00000380: 1d0a 453c 6e3d d03c 9ac2 383b 67cd ff3c
00000390: 1c9d cc3c 35c3 c7bc 313d 8a3c 971b c23c
000003a0: eb7f 52bb b6a2 bf3c dd67 b43c 45e8 0f3c
000003b0: 59d1 1e3d 9f04 08bd 4ac0 03bd 8be8 753b
000003c0: dc26 24bd 0c8e d3bc 1cea 2abc 23ae 9f3b
000003d0: 889f f8bc 2361 61bb 57c1 29bd 3043 a0ba
000003e0: 14b3 04b9 08e3 85bc bbd2 c23c 51f7 f13c
000003f0: 94a6 76bc ab43 1d3d 8736 aebc 7d51 1d3d

conv3.bias f4 [128]
-0.027427413 0.029715626 -0.020250158 -0.034132358 -0.010880439 0.028542208 0.0033399865 -0.0156775
0.00647114 0.037314698 0.018490683 0.022407472 -0.013081752 -0.040937804 -0.0025353667 0.012206284
-0.016807681 0.022205954 0.022379905 0.020938434 0.03007608 -0.0030673472 -0.030657927 0.009648408
0.031907745 -0.04764254 0.037239548 0.04206022 -0.009764564 0.03485976 -0.009288239 -0.01862298
-0.01459992 -0.046766028 0.047898516 0.028337121 0.01901536 -0.016989697 -0.020205177 0.04688828
-0.0134636415 -0.0225307 -0.02200644 -0.028208412 -0.02135484 0.030620357 -0.019972093 -0.0070771966
-0.028258713 -0.016885268 -0.0027928567 -0.037477635 0.01998668 0.023276078 -0.01792245 -0.0102964025
-0.030758884 -0.025982596 0.039402615 -0.042562228 -0.005144453 -0.0024949342 0.044108346 -0.04862739
-0.003890482 -0.03945099 0.039868873 0.03487984 0.0050972416 -0.03921091 0.022915812 -0.012337065
0.03743683 -0.0015667335 0.038932357 -0.025376186 0.021284 -0.019517487 -0.030909505 0.004221326
0.0061432524 -0.002999806 0.016865423 -0.013973592 0.018387698 0.042325664 0.021361914 0.009483876
-0.035151355 -0.010643162 -0.018186871 0.01757534 -0.024380088 -0.05089538 -0.024804609 0.04701284
-0.00691662 -0.0063932296 -0.003406022 -0.030297024 -0.0072897286 -0.009350418 -0.0076054297 0.03379042
0.01109941 0.02902982 -0.036123287 0.042052127 0.019443713 0.01720187 0.01718463 0.051100355
0.028242826 -0.038445983 -0.017319858 -0.013207551 -0.02334896 -0.041229248 0.02287929 0.008335551
-0.045637816 -0.003176897 -0.04122136 0.04025471 -0.030458165 0.035105195 -0.015834924 0.008215424
00000000: 74af e0bc 2f6e f33c a9e3 a5bc 5fce 0bbd
00000010: de43 32bc 59d1 e93c ade3 5a3b 1a6e 80bc
00000020: db0b d43b 4cd7 183d c679 973c e08f b73c
00000030: d854 56bc 66ae 27bd 6528 26bb defc 473c
00000040: 43b0 89bc 43e9 b53c 1056 b73c 1487 ab3c
00000050: 1c62 f63c 8c05 49bb 5526 fbbc 5b14 1e3c
00000060: b2b1 023d d324 43bd 7f88 183d 5647 2c3d
00000070: 8dfb 1fbc 1cc9 0e3d b32d 18bc 388f 98bc
00000080: 8134 6fbc bc8d 3fbd 3c31 443d 4023 e83c
00000090: 1ac6 9b3c fa2d 8bbc 5485 a5bc ed0d 403d
000000a0: 9b96 5cbc 4d92 b8bc da46 b4bc 5415 e7bc
000000b0: 58f0 aebc 8bd7 fa3c 849c a3bc d4e7 e7bb
000000c0: d17e e7bc f952 8abc 5c08 37bb 2682 19bd
000000d0: 1bbb a33c 79ad be3c 1ad2 92bc 3eb2 28bc
000000e0: 0efa fbbc 74d9 d4bc a364 213d bb55 2ebd
000000f0: cd92 a8bb 0d82 23bb f4aa 343d 842d 47bd
00000100: 75f7 7ebb 5c97 21bd 8b4d 233d 2ade 0e3d
00000110: c306 a73b 9f9b 20bd f1b9 bb3c 6721 4abc
00000120: 5d57 193d da5a cdba 8977 1f3d b8e1 cfbc
00000130: c85b ae3c 23e3 9fbc ee35 fdbc 0d53 8a3b
00000140: 564d c93b 6598 44bb 5b29 8a3c 7ef1 64bc
00000150: cca1 963c ad5d 2d3d 2eff ae3c 4262 1b3c
00000160: defa 0fbd a860 2ebc a2fc 94bc 29fa 8f3c
00000170: c0b8 c7bc ad77 50bd 0933 cbbc 8990 403d
00000180: d0a4 e2bb 4c7e d1bb 9137 5fbb 7731 f8bc
00000190: adde eebb 7f32 19bc f836 f9bb d367 0a3d
000001a0: 4dda 353c f2cf ed3c 03f6 13bd da3e 2c3d
000001b0: 6c48 9f3c f0ea 8c3c c8c6 8c3c 9b4e 513d
000001c0: 805d e73c 8979 1dbd 60e2 8dbc 7c64 58bc
000001d0: 5146 bfbc 00e0 28bd 596d bb3c d691 083c
000001e0: b8ee 3abd 7d33 50bb bbd7 28bd 1fe2 243d
000001f0: 6783 f9bc 77ca 0f3d 3eb8 81bc fc99 063c

fc.weight f4 [1, 32768]
-0.00212302 -0.0018170911 0.0023598971 -0.0045913626 0.013532021 -0.0015600724 -0.0053500747 -0.0055365185
-0.009787382 -0.007946423 2.7778882e-05 0.0028131062 -0.011945748 0.0050464817 -0.0007227259 -0.0054821507
0.006394488 -0.008043176 0.003321546 -0.004908571 0.011136226 0.010799531 -0.0020782189 0.0024908714
-0.009475054 -0.012497914 -0.009005237 0.0051873378 0.00037530193 -0.00010941708 -0.0048731817 0.0019899902
-0.0013401355 -0.0012939206 -0.008606893 -0.001504927 0.0043346514 0.0006177772 -0.0035700891 0.0031556897
0.009849848 0.00017528729 -0.008634557 -0.0023229448 0.01009742 0.0014927819 -0.0030444353 0.00092662167
-0.00096447166 -0.0034677135 0.0021286553 0.001328853 0.002948623 0.0033925213 -0.00047211634 0.004494439
0.0026980578 0.0045813844 0.008946812 -0.00105679 -0.00717056 -0.0016221934 -0.0045087654 -0.0060306266
-0.0033063253 -0.0020352139 -0.006324975 -0.0011644629 -0.004753507 -0.0077986247 -0.005586507 -0.006946684
-0.0014268606 0.0029376037 -0.0010736545 0.006164509 0.008034759 0.00321967 -0.008809743 -0.0019352592
0.0029330663 0.007289603 -0.009279544 -0.003738885 0.002447396 -0.0014358988 -0.011918507 0.0038943726
-0.002450383 0.00041390132 -0.0060772686 0.011938339 0.006372509 0.0075325887 0.001883721 0.0003850096
0.005207284 0.001715608 0.0013403747 -0.0026052927 0.0054182257 0.0098343985 0.0065972763 0.00781634
0.0074315327 0.005527401 0.0002971201 0.00973517 0.0055535496 -0.008053225 -0.003415066 0.004017494
-0.0017330212 0.0010889098 0.00024182258 -0.00023784002 -0.016386824 -0.026696706 0.016640712 -0.0159656
-0.04516484 -0.01928718 0.020873731 -0.014732494 -0.014309178 -0.0052975123 -0.0018821711 0.004342184
0.004120235 0.011988917 0.0047487407 0.013592461 0.0069468585 -0.017976735 -0.012871288 -0.0034168004
0.013497818 -0.022461656 -0.02296288 -0.006729988 0.0056629837 0.001896557 -0.00015242003 0.0029243263
-0.007068921 0.016156025 -0.0038006562 -0.003403124 -0.0076008122 0.020912478 0.013416426 -0.008352045
0.035824895 0.01321449 -0.01142861 0.010945906 0.009340596 -0.0006129023 0.0054361364 -0.0067598005
0.0030138067 0.010308922 0.0085382825 0.006888325 -0.0152243115 -0.0053521204 0.0027518999 0.007896853
0.005364355 0.004185431 0.003162285 -0.00054953777 -0.008394263 -0.005714787 -0.000904533 -0.0014535045
0.0068992656 0.0116067 0.01263471 0.011794551 0.009337554 -0.012260675 -0.0019762223 -0.0041103046
-0.0054342835 0.00078072917 0.0055088066 -0.0022443694 -0.0015238217 -0.009077055 -0.0013417867 -0.0029615841
-0.0019466145 0.00054677797 -5.207247e-05 0.010140035 0.022526613 0.001124359 -0.004882004 0.006182679
-0.0052187634 -0.0024884169 0.00090374035 0.011000647 0.010368194 0.006496925 -0.006099183 0.006194522
0.0015658262 -0.006805696 0.0033999365 0.0035489264 0.014552569 0.0063430727 -0.0066109817 -0.009243572
0.007377083 0.0059623537 -0.010410004 0.0035717103 0.0021053234 -0.003420364 0.0072603375 0.0076933173
0.0009663386 -0.005698885 0.0016561741 0.007992089 0.0068747536 0.0010929607 0.008390854 -0.00028813278
8.296977e-05 0.011153963 -0.001299091 0.0002962759 -0.0043188403 -0.0058116047 -0.0026070129 0.0054710777
0.0047543845 0.0038759157 -0.0042585135 -0.0026246435 -0.00077764643 -0.0055607664 -0.00067919906 0.00036326094
-0.00330746 -0.0027018227 0.00093781913 0.0057566585 0.0020552531 -0.0019721226 0.0060798395 -0.003694833
00000000: 5d22 0bbb 762b eeba 81a8 1a3b 2473 96bb
00000010: 69b5 5d3c 587b ccba ae4f afbb af6b b5bb
00000020: 415b 20bc b731 02bc b206 e937 175c 383b
00000030: 19b8 43bc f55c a53b 5075 3dba 9da3 b3bb
00000040: da88 d13b 86c7 03bc 4bae 593b 14d8 a0bb
00000050: b874 363c 84f0 303c ba32 08bb e33d 233b
00000060: 423d 1bbc 0dc4 4cbc b48a 13bc 8bfa a93b
00000070: 2cc4 c439 d976 e5b8 36af 9fbb 7f6a 023b
00000080: 7ca7 afba c598 a9ba ed03 0dbc f840 c5ba
00000090: b109 8e3b 53f2 213a 28f8 69bb b0cf 4e3b
000000a0: 4261 213c 53cd 3739 f577 0dbc 8c3c 18bb
000000b0: a66f 253c 73a9 c33a 2685 47bb 87e8 723a
000000c0: 99d4 7cba 9442 63bb e980 0b3b e82c ae3a
000000d0: af3d 413b 1055 5e3b 6286 f7b9 1646 933b
000000e0: e6d1 303b 701f 963b a695 123c fd83 8aba
000000f0: 04f7 eabb c79f d4ba 44be 93bb 909c c5bb
00000100: efae 58bb 3961 05bb bc41 cfbb e4a0 98ba
00000110: 4fc3 9bbb 9b8b ffbb 040f b7bb 02a1 e3bb
00000120: 7f05 bbba d084 403b deb9 8cba a6ff c93b
00000130: 39a4 033c 1901 533b be56 10bc 86a8 fdba
00000140: b038 403b 9fdd ee3b 3b09 18bc 1508 75bb
00000150: 7e64 203b c534 bcba d745 43bc bb38 7f3b
00000160: 9b96 20bb e500 d939 d323 c7bb 0699 433c
00000170: 7bd0 d03b efd3 f63b 30e7 f63a 1ddb c939
00000180: dda1 aa3b 41de e03a 83af af3a 8fbd 2abb
00000190: 5f8b b13b 7520 213c f72d d83b 1b10 003c
000001a0: 3784 f33b 331f b53b c9c6 9b39 4380 1f3c
000001b0: 8dfa b53b adf1 03bc 4dcf 5fbb 2fa5 833b
000001c0: 8b26 e3ba c0b9 8e3a c191 7d39 b264 79b9
000001d0: a93d 86bc 0db3 dabc 1a52 883c 4aca 82bc
000001e0: c4fe 38bd 2600 9ebc 63ff aa3c 8f60 71bc
000001f0: 0b71 6abc c196 adbb 2fb3 f6ba e148 8e3b
00000200: 0903 873b 2a6d 443c 539b 9b3b eab2 5e3c
00000210: 79a2 e33b f243 93bc 18e2 52bc 66ec 5fbb
00000220: f425 5d3c 8201 b8bc a61c bcbc 3b87 dcbb
00000230: 8d90 b93b e595 f83a f1d2 1fb9 0ea6 3f3b
00000240: 68a2 e7bb a459 843c 6e14 79bb f206 5fbb
00000250: 3c10 f9bb a550 ab3c 92d0 5b3c 04d7 08bc
00000260: 20bd 123d 9781 583c 113f 3bbc 7556 333c
00000270: 4d09 193c 2dab 20ba 9e21 b23b 5181 ddbb
00000280: 4983 453b c1e6 283c 27e4 0b3c 75b7 e13b
00000290: 646f 79bc d760 afbb 3859 343b cd61 013c
000002a0: 79c7 af3b f125 893b 573e 4f3b db0e 10ba
000002b0: 1788 09bc 1c43 bbbb 2f1e 6dba 8583 beba
000002c0: 3c13 e23b 072a 3e3c d101 4f3c ef3d 413c
000002d0: 8afc 183c 00e1 48bc 8283 01bb bcaf 86bb
000002e0: 1312 b2bb d9a9 4c3a 3883 b43b 4516 13bb
000002f0: f9ba c7ba eeb7 14bc e4de afba 2317 42bb
00000300: 8b25 ffba a655 0f3a 6468 5ab8 6422 263c
00000310: bb89 b83c 3a5f 933a 38f9 9fbb 1298 ca3b
00000320: 2902 abbb b514 23bb fde8 6c3a 0f3c 343c
00000330: 5cdf 293c 28e4 d43b a8db c7bb 6bfb ca3b
00000340: 693c cd3a 5102 dfbb 78d1 5e3b 1b95 683b
00000350: e66d 6e3c 8dd9 cf3b efa0 d8bb 5a72 17bc
00000360: 75bb f13b d95f c33b b98e 2abc 5b13 6a3b
00000370: 77f9 093b 3028 60bb 20e8 ed3b 3918 fc3b
00000380: e351 7d3a b6bd babb fb13 d93a 40f1 023c
00000390: 9d45 e13b ad41 8f3a cb79 093c 8710 97b9
000003a0: 0e00 ae38 1dbf 363c 4346 aaba 7a55 9b39
000003b0: 0f85 8dbb 466f bebb 6bda 2abb ba46 b33b
000003c0: abca 9b3b 1303 7e3b 008b 8bbb 3602 2cbb
000003d0: f8da 4bba 1737 b6bb 470c 32ba 0f74 be39
000003e0: f9c1 58bb 1011 31bb fad7 753a 5aa2 bc3b
000003f0: 6db1 063b ba3e 01bb 6439 c73b 0325 72bb
